ei-muse-eeg-robot-blinks-classifier-tensorflow-lite-float32-model (1).lite (tflite, 29060 bytes, 6 tensors)

y_pred/bias f4 [3]
000000 2b a3 b0 bc 92 eb 8b be e1 fe a4 3e
       -0.02156218 -0.27328163 0.32225707

dense_1/bias f4 [20]
000000 4a c2 13 3b ee 7e 62 bd 9d 8f 49 bc ff 9b 64 bc
       0.0022546225 -0.05529683 -0.0123023065 -0.013953208
000010 38 05 c8 3d f3 ce d7 bc 58 49 cb 3d 96 30 d2 bc
       0.097666204 -0.026343798 0.099260986 -0.025657933
000020 17 bf 66 bb 00 00 00 00 11 9c 8d bc 43 8d b0 3c
       -0.0035209113 0.0 -0.017286332 0.021551734
000030 d4 00 3d bc 49 43 a2 bc c0 7d 62 3d 68 2a 35 bd
       -0.011535842 -0.019807475 0.055295706 -0.044229895
000040 7c c5 75 bd 52 44 93 bd 3b c1 aa bc d4 bd 0f bd
       -0.06000279 -0.071907654 -0.020844093 -0.035093144

dense/bias f4 [40]
000000 b0 d3 49 3c 3b 4f 9e 3b 40 0b 9a bd a7 9a f7 bb
       0.012318537 0.0048312224 -0.07521677 -0.007556278
000010 67 90 0d bc cd 6c 3e bd 00 00 00 00 98 01 83 bc
       -0.008640385 -0.04649048 0.0 -0.01599197
000020 96 49 11 bc 55 7d 77 bc 99 36 61 bb f8 8c 08 3d
       -0.008867642 -0.015105565 -0.0034364818 0.033337563
000030 43 c5 f6 bb ca 08 71 3b c3 8d 55 bb 22 b7 4f bc
       -0.0075308396 0.003677892 -0.0032585717 -0.01267794
000040 00 00 00 00 76 5b 85 3d 00 00 00 00 f6 2f c4 3d
       0.0 0.065115854 0.0 0.0957946
000050 4c 1a c5 bb 8f 27 75 3d 00 00 00 00 17 d5 02 bc
       -0.0060150977 0.05985218 0.0 -0.007985375
000060 00 00 00 00 57 28 e1 bc 1f 05 a7 3c 8a 64 1a bd
       0.0 -0.027485056 0.020388184 -0.037693538
000070 8d 40 23 bb af f4 64 bc 3b 5b 05 3d 36 56 36 bd
       -0.0024910301 -0.013974353 0.032557707 -0.04451581
000080 ac fa ba 3b 37 20 0e 3d 00 00 00 00 e5 4b 13 bd
       0.005706152 0.03469869 0.0 -0.03596105
000090 6d 62 5f bd 00 00 00 00 a4 b6 27 bc 70 73 9e 3c
       -0.054537226 0.0 -0.010236416 0.019342154

sequential/dense/MatMul f4 [40, 148]
000000 c9 45 43 be 6f 3c 79 be 54 5b 80 3d 32 79 d6 bd
       -0.1906959 -0.2433946 0.062674195 -0.10472335
000010 73 7f a3 bd a9 d5 8d 3e ef 7d 9a bd c8 c0 04 3d
       -0.079832934 0.27702072 -0.07543551 0.032410413
000020 c3 14 13 3e f2 58 fa 3d ab fd 12 3e 2a 82 20 3e
       0.14363389 0.12223996 0.14354579 0.15674654
000030 dd ee 18 bd f4 7d 53 be 6c 0c 68 bd 70 15 05 be
       -0.037337173 -0.20653516 -0.05665247 -0.12996459
000040 bd 3a f6 3c 41 32 b5 3d 0b 53 6f bd f0 a4 cc 3d
       0.030057305 0.08847476 -0.058428805 0.09992397
000050 f2 9b 27 3e 3d 5a 40 3e 38 eb 28 be 58 44 e9 bc
       0.16368082 0.18784423 -0.16495979 -0.028474972
000060 77 5b c5 3c b6 86 6b 3d ed 9b be bd 4d 8b 05 3d
       0.024091465 0.057501517 -0.09307084 0.03260355
000070 c3 72 b4 3d d9 55 db bc 6a bf c8 3d e7 f4 99 bd
       0.088109516 -0.026774334 0.09802134 -0.075174145
000080 aa ab 69 3c e2 59 8c 3d 10 9b 24 bd 6c fa 4c 3e
       0.014262119 0.06853081 -0.04018694 0.20017403
000090 73 7c 8d bd 48 c6 bd bd 1c ef 3f 3e d4 f4 49 bd
       -0.069085024 -0.09266335 0.18743557 -0.049305752
0000a0 5a 6d f0 3d 36 ee 4b 3a eb 8f 59 bb cc 6d 08 bd
       0.11739607 0.00077793316 -0.0033197354 -0.033307835
0000b0 55 df 2f bd 34 86 b3 3d cc d3 35 3c 4e b4 36 3d
       -0.042937595 0.087658316 0.01109786 0.044605546
0000c0 04 02 0b bd 18 6d 9a 3d 92 cd 20 be 47 04 ff 3d
       -0.03393747 0.07540339 -0.15703419 0.12451988
0000d0 2d ac 40 bd 7c a6 80 3c f3 ba de bb e2 6f 50 3e
       -0.0470392 0.015704386 -0.0067971884 0.2035518
0000e0 d8 f4 5c bd e3 6d a8 bd 47 cd 26 3e 35 3d 3d be
       -0.05394444 -0.08224084 0.16289245 -0.1848038
0000f0 69 91 2d 3e 97 03 b2 3e 58 9f 86 3e 2d e7 b1 3e
       0.16950001 0.34768364 0.26293445 0.34746686
000100 d4 e0 d0 3d c9 12 df 3d 6e b8 f7 3a 47 af 6b 3c
       0.101991326 0.10892255 0.0018899569 0.014385051
000110 08 1d 59 bd 5e 2b 20 3f d5 f2 1a 3e ac 29 6f be
       -0.053006202 0.62566173 0.15131696 -0.2335574
000120 f4 16 d1 bd 6a f9 e3 bd 6f 99 33 bd 6c 2b e2 3d
       -0.10209456 -0.11131556 -0.043847498 0.11043438
000130 34 59 22 3a 72 3c 1f 3e 93 de d9 3c 12 40 72 bd
       0.0006193102 0.15550402 0.02659539 -0.059143133
000140 e7 97 af bc 93 60 c2 bd 18 55 24 be b9 b1 e1 3d
       -0.021434737 -0.09491076 -0.16048086 0.11020226
000150 1c a7 02 bd da b6 72 bb 3f 98 cd bd f6 5d 6c 3e
       -0.03189765 -0.0037035258 -0.10038804 0.23082718
000160 32 45 da 3c 6a 8b 03 3d a8 34 9d 3d f3 c0 6c 3e
       0.026644323 0.032115377 0.07676059 0.2312048
000170 a4 5a 34 3e 0a 4f a5 bd 17 88 b0 bd 72 ce 48 3e
       0.17612702 -0.08071716 -0.08619707 0.19610003
000180 9e e9 44 be 50 cb b5 3d 85 6c 15 3e 5b 4f 8d 3d
       -0.19229743 0.088766694 0.14592178 0.068999015
000190 10 09 80 3e ca 1d 72 3e 41 48 0b 3e 96 03 91 3e
       0.25006914 0.23644176 0.13601781 0.28323048
0001a0 7a a8 9a bd 9e 46 61 3e f9 27 5d 3e 2f 0d 7c bc
       -0.075516656 0.21999595 0.2159728 -0.015384003
0001b0 a8 9b f3 bc 98 69 81 be 3e fb f1 bd 61 82 4f 3d
       -0.029737309 -0.25275874 -0.11815499 0.05066145
0001c0 56 57 61 bd 12 19 47 3c 5a 6f 37 3e 22 fa 8b bd
       -0.05501493 0.012151973 0.17913571 -0.068348184
0001d0 e1 65 5e 3e c3 60 f2 3d 6a 51 f8 3d dc 73 9d 3d
       0.21718551 0.11834862 0.121249035 0.07688114
0001e0 b2 c5 b4 bd cb a4 5a bd 54 c5 1f bd 25 37 e9 3d
       -0.0882677 -0.053379815 -0.039006546 0.11387471
0001f0 77 e3 f2 bb 4d e0 26 be f4 79 e6 bc c0 91 10 be
       -0.00741237 -0.16296501 -0.028134324 -0.14118099
000200 fe f9 80 3d 92 2a eb 3d e5 e0 10 3e 1a 15 82 3d
       0.06297682 0.11482729 0.1414829 0.06351681
000210 65 0d 2a 3d b0 be 3d 3c 9d 47 fc bd e2 6e 43 3e
       0.04151668 0.011581108 -0.12318347 0.19085267
000220 5f 0b dd bd 5a 0e 2c 3e 76 a0 0f 3e c8 b3 3b 3e
       -0.107931845 0.1680235 0.14026055 0.183303
000230 74 5b 83 bd c3 0f e5 3d 93 bf 97 bd 0c 9d 70 3e
       -0.06413928 0.11184647 -0.07409587 0.23497409
000240 3e 3b 1a 3e 48 ec 1f 3e 38 cf ca bd 3d 26 78 3d
       0.15061662 0.15617478 -0.09902805 0.060583342
000250 30 bc 8c 3d 24 23 0a 3e 6a 47 84 bb 3b 54 09 3e
       0.068718314 0.13489968 -0.0040368335 0.13411038
000260 66 8b eb bd e1 e2 aa 3d d4 ff 44 bd b5 42 d8 bd
       -0.115011975 0.08344055 -0.04809554 -0.10559598
000270 00 b2 67 bd 2a fc d8 3d d8 0d 1e bc db 5c 01 be
       -0.05656624 0.105949715 -0.009646855 -0.12633078
000280 81 a1 44 3d b8 d2 63 3d 76 8c ba bd 2f fa 22 3e
       0.048005585 0.05562088 -0.09108822 0.1591575
000290 ce ef 1a be 94 94 18 be b7 ad 29 bd cc 30 08 3e
       -0.1513054 -0.14900428 -0.041425433 0.13299865
0002a0 53 71 b3 bd 87 36 28 3d 5b a3 02 be 20 4e a1 3d
       -0.08761849 0.041067626 -0.12757628 0.07876229
0002b0 21 72 36 bd 54 21 10 3e 71 34 16 be e8 c3 2b 3e
       -0.044542436 0.14075214 -0.14668442 0.16773951
0002c0 d1 62 16 be ad 8c 23 bc 19 10 1d 3e d9 d7 9a bd
       -0.14686133 -0.00998227 0.15338172 -0.07560701
0002d0 f4 69 92 bd 76 a2 de 3d 5c 0a 11 3e 58 09 2b be
       -0.07149115 0.10870831 0.14164108 -0.16702783
0002e0 7d 9b 8a 3c 97 92 12 3e b1 79 8a 3c da 07 96 3d
       0.016919846 0.14313732 0.01690373 0.07325716
0002f0 e3 a6 18 3e 33 eb 0b be 0f 36 84 bd 35 9c 17 be
       0.14907412 -0.1366394 -0.06455623 -0.14805682
000300 36 20 96 bd be 47 2d 3e 93 dd 17 be 80 73 46 be
       -0.073303625 0.16921899 -0.14830618 -0.19379997
000310 1b 55 9b 3c 53 3f 3e be 82 02 e5 bb e4 b3 e5 bd
       0.01896148 -0.18578844 -0.0069888243 -0.11215952
000320 e0 41 b7 bd 28 21 ed bd da 41 da bc 86 96 e2 bd
       -0.089481115 -0.1157859 -0.026642729 -0.11063866
000330 45 65 a6 3d 5f 35 df 3d b9 d4 13 be b8 b0 f6 bd
       0.081247844 0.108988516 -0.14436616 -0.12045425
000340 b9 07 9d 3d d6 50 e6 bc 8f a7 18 3d 07 5d 65 be
       0.076674886 -0.028114717 0.03726917 -0.22398768
000350 2d 5b b5 3d bb d5 60 3c a3 db 0b be 53 d9 d1 bc
       0.08855281 0.013722832 -0.13658004 -0.025616324
000360 71 07 5d 3d 3b 67 21 be 45 22 96 3d b8 68 8a bd
       0.053962175 -0.15762036 0.07330755 -0.06758255
000370 ca 4a ce bd d9 cc 4d bd 27 d4 ae 3d ce 73 88 3e
       -0.10072859 -0.050244186 0.085365586 0.26650852
000380 3c e1 d6 bd cf 55 1a bd 30 d3 fa bd db 7a a9 3d
       -0.10492179 -0.03767949 -0.12247312 0.08275386
000390 47 17 bc bb 0a d9 8d 3d 96 e3 a3 bd d5 33 0f 3e
       -0.0057400796 0.069261625 -0.08002393 0.13984616
0003a0 04 e4 83 3d d0 8c 28 3e 15 57 03 3e 43 11 cf bd
       0.06439975 0.16459966 0.12826188 -0.10110714
0003b0 5d f6 c1 bd 32 7c ea bd bd 3c 42 3c 73 f1 02 be
       -0.09470818 -0.114494696 0.011855301 -0.12787418
0003c0 fd 20 af bd d1 50 f4 3c 87 e5 eb 3d 2d bc 06 3e
       -0.08551214 0.029823693 0.11518388 0.13157721
0003d0 53 8a ec bd 6d b1 49 be b2 7b fb bd 81 d3 1e 3e
       -0.11549821 -0.19696589 -0.122794524 0.1551037
0003e0 95 24 18 be 99 0c 46 be d3 f4 a9 3d 81 84 b9 bd
       -0.14857705 -0.19340743 0.0829865 -0.09058476
0003f0 6b 93 13 be 70 f8 d0 bd 31 f7 af 3b 01 14 c6 bd
       -0.14411704 -0.10203636 0.0053700437 -0.09671784

sequential/dense_1/MatMul f4 [20, 40]
000000 16 2c 9f be db 3c 9e 3d a4 d1 b5 3e 58 d6 a7 bd
       -0.31088322 0.07726451 0.35511506 -0.0819518
000010 49 09 74 be d2 8c 2d be af 2d 8c 3e 35 1d 43 be
       -0.23831667 -0.1694825 0.27378604 -0.1905411
000020 44 4c 98 be ef 10 24 be 5e 07 68 3e 4f 92 de 3d
       -0.29745686 -0.16022085 0.2265906 0.1086775
000030 15 c6 73 3a 5c 88 80 3e 84 d4 70 be e4 67 26 be
       0.0009299231 0.25104034 -0.23518568 -0.16250569
000040 d4 7f d7 3d a0 60 9d 3e 93 42 8c 3e 99 a0 d0 3e
       0.10522428 0.30737782 0.27394542 0.40747526
000050 64 59 eb bd 9a fd d1 bd 61 d4 20 be 78 42 0b 3e
       -0.11491659 -0.10253449 -0.15706016 0.13599575
000060 f6 ad 4a be 84 61 17 bf dd c7 d3 3e 76 3a 67 3d
       -0.19792923 -0.5913317 0.4136342 0.056452237
000070 0f 6f e2 bb b5 94 3d 3e 04 5b 36 3e c1 dd a5 be
       -0.006910212 0.18513758 0.17808157 -0.32395747
000080 f2 3b 19 bd cc b5 96 be e0 06 f1 bd e2 b0 0c 3e
       -0.037410684 -0.29435575 -0.117688894 0.1373935
000090 fa f2 84 3e 18 0a 84 bd cf 4f 96 bc 05 4f 85 bd
       0.25966626 -0.06447238 -0.018348603 -0.065092124
0000a0 b3 0f 44 be ff 5e be bd d6 9f af 3d f2 19 2d 3e
       -0.19146614 -0.09295463 0.08575408 0.16904429
0000b0 70 b0 1b be 9a 9f 2e 3e 5a e3 92 bd 89 86 d1 bd
       -0.15204024 0.1705307 -0.0717227 -0.10230739
0000c0 a5 b4 63 bd e6 66 87 3e 9c 7b dc 3d 88 f0 5d bd
       -0.055592198 0.26445693 0.10765764 -0.054184467
0000d0 b0 db 4b bd 69 08 fc bd 80 22 08 bc 6a 3c 54 be
       -0.049770057 -0.123062916 -0.008309007 -0.20726171
0000e0 36 30 49 3e 04 1d 06 be 1a ab 14 3e 83 93 c3 be
       0.19647297 -0.13097006 0.14518395 -0.3819848
0000f0 01 2c 9f be 3a 0e e2 bd d3 ad 95 3e 38 67 5a 3d
       -0.3108826 -0.1103787 0.2923418 0.053321093
000100 a8 5b 4f 3d 2f fb a7 3e a1 7e 92 bd b2 9b dc 3d
       0.05062452 0.32808825 -0.07153059 0.10771884
000110 3d 14 b7 bc ea 1e 11 3e 92 8c 79 3e 6e 09 23 3d
       -0.022348518 0.14171949 0.2437003 0.039803915
000120 e9 26 31 be 6b 8c a4 3e 8a 75 9e bd 33 21 0c be
       -0.173 0.3213838 -0.077372625 -0.1368454
000130 4a 49 6d be c5 fe 9d 3e c9 ee f5 3d 35 85 b5 3d
       -0.23172489 0.30858436 0.12008435 0.08863298
000140 1c 3d af be 17 00 11 3e 85 6b bc 3e a7 c2 e9 3d
       -0.3422631 0.1416019 0.3680078 0.1141408
000150 2d 8c 75 3e d4 27 24 be 1c 0d c6 3d 9f 39 93 3d
       0.23979254 -0.16030818 0.09670469 0.07188725
000160 04 be d0 bd fa ce 80 be b8 da 94 3e d9 5f fd bc
       -0.101924926 -0.2515791 0.2907312 -0.030929493
000170 ff 95 82 3e 99 63 23 be 3b 05 db bb cc a2 29 3e
       0.25505063 -0.15955962 -0.006683973 0.16566008
000180 00 78 45 3d c2 72 98 be a5 78 92 3e 00 1f 39 bd
       0.048210144 -0.29775053 0.2860767 -0.04519558
000190 73 71 3a 3e 78 18 5d bc ae 0c 49 3e f5 06 9b 3d
       0.1820734 -0.013494603 0.19633743 0.07569686
0001a0 00 d5 c5 ba 9b f7 09 be 93 bc 90 3d db ee ce 3e
       -0.0015093386 -0.1347336 0.07067218 0.40416607
0001b0 c9 8a 94 bd 2c 0d 7e bb ab 7d 82 be 95 96 c9 3d
       -0.07253034 -0.0038765175 -0.25486502 0.09843174
0001c0 28 2b 02 3e 27 b6 2f bd 52 00 1f 3e 7b 64 89 3e
       0.12711775 -0.042898323 0.15527466 0.26834473
0001d0 a4 e1 6d 3e f0 f8 a0 3d 2e df 8f 3e a1 6e 16 3e
       0.23230606 0.07859981 0.2809996 0.14690639
0001e0 0d 61 55 be db cf 4c be 62 ac 70 bd ae f3 45 3e
       -0.20837803 -0.20001166 -0.058758147 0.19331238
0001f0 a9 a3 80 3e a2 66 5f 3e c0 91 b5 3b ed f3 b1 bd
       0.25124863 0.21816495 0.0055410564 -0.08689103
000200 d5 1c 85 3d 40 59 82 3d ef a7 2a be 13 85 55 3e
       0.0649964 0.06364679 -0.16665624 0.20851545
000210 50 9d ba bc 60 c9 98 be a4 38 a6 3d 94 e2 04 3e
       -0.02278009 -0.29841137 0.08116272 0.12977058
000220 a4 fc 03 be a4 eb 88 3d ba f5 7a 3e 38 95 bd 3d
       -0.12889344 0.0668557 0.245078 0.09256977
000230 a0 1f 8d be 80 4b 55 be ba d0 23 3e 96 9c 2d be
       -0.2756319 -0.20829582 0.15997592 -0.16954264
000240 f0 d1 b1 bc 66 bc e2 bd aa 1c 46 be 80 c1 d3 3d
       -0.021706551 -0.110710904 -0.19346872 0.103396416
000250 62 84 5f 3d df 14 97 3d 8a ca db 39 49 f9 72 3d
       0.05456961 0.07377028 0.00041921838 0.059319768
000260 a5 8e e0 bd 8d 3d 9b be a0 c4 d3 bd 96 66 36 be
       -0.10964707 -0.30320397 -0.103402376 -0.17812571
000270 e6 76 07 bd 58 fa 13 3d 4c 54 a1 3d 28 3e 7d be
       -0.033072375 0.03612742 0.078774065 -0.24730742
000280 29 62 01 3f 3e 39 64 be c5 ba 17 bf 3b b7 fc bd
       0.50540406 -0.22287461 -0.5926936 -0.12339636
000290 a0 f4 40 be 1b 94 03 3d c9 3d 86 be be 61 1a 3d
       -0.18843317 0.032123666 -0.26219013 0.03769087
0002a0 77 33 3c 3e dd 7c b9 3e 5c a3 3f 3e f0 b3 bd bd
       0.18379007 0.36228076 0.1871466 -0.09262836
0002b0 e6 eb 16 3e a5 62 1e 3d 13 3f f4 3d 49 7c 68 3e
       0.14738426 0.038668294 0.11926093 0.22703661
0002c0 d6 b5 25 be 5a d3 c1 ba a0 ca 8f 3c 59 a2 5d 3e
       -0.16182646 -0.0014787719 0.017552674 0.21643962
0002d0 50 6b 4f 3e 0b 90 07 bf 1e 52 00 3e 52 fb fc bd
       0.2025578 -0.5295417 0.12531325 -0.12352623
0002e0 2e af 91 be 47 97 37 3f e5 fc 24 3d 73 71 a6 bb
       -0.28453964 0.71715206 0.04028024 -0.005079442
0002f0 cc d0 2d be 3d d7 3d 3e 96 50 88 3e e9 32 86 be
       -0.16974181 0.18539138 0.26623982 -0.26210716
000300 5f f8 48 be d6 bd d6 3e 18 f5 9c be 45 58 0e 3e
       -0.19625996 0.41941708 -0.30655742 0.1390086
000310 be 3c 82 be 56 39 21 3e 69 57 49 3e f6 f2 c8 bc
       -0.25436968 0.15744528 0.1966225 -0.024529915
000320 44 db 1d 3e a3 82 8b be 32 bd 56 be 40 33 13 3c
       0.15415674 -0.27248105 -0.2097061 0.008984387
000330 66 7a 84 3e 0c db aa be 3a 2d 6f be fe 24 25 be
       0.25874633 -0.33370245 -0.23357096 -0.16127393
000340 3d f1 85 be 5a 39 93 be ce 58 41 3e e5 eb 3a bd
       -0.26160613 -0.28754693 0.18881533 -0.045635123
000350 63 a0 3b be d0 ad 8e be 76 7c 92 be 76 4b 84 3e
       -0.18322901 -0.27866983 -0.2861058 0.25838822
000360 62 78 45 3e b6 fe c0 bd 5a fb 56 3e ec 26 84 3e
       0.19284204 -0.09423582 0.2099432 0.25810945
000370 32 25 29 3e ee bb 03 3e 80 4b 1c 3b 18 82 e2 3d
       0.16518095 0.12864658 0.0023848712 0.1105997
000380 a0 d3 fa bc cf 12 6e be c0 9e 38 be d9 64 a1 3e
       -0.030618489 -0.23249362 -0.18029308 0.31522253
000390 c0 47 19 be 01 2a d2 bd 75 10 5c 3e 5d 7f 43 be
       -0.14968777 -0.10261918 0.21490653 -0.19091554
0003a0 0c 51 4e be 55 ef 07 be 6c 6a a8 3d c0 a6 79 bd
       -0.20148104 -0.13274892 0.08223423 -0.06095004
0003b0 10 e2 4f 3d 25 3d 9d be 7a b5 08 3d d6 95 90 bd
       0.0507527 -0.30710712 0.033376195 -0.07059829
0003c0 99 e5 b8 3e 94 e2 d1 bc 9f 23 12 3c 1b 45 eb 3d
       0.3611267 -0.025620736 0.008919626 0.1148779
0003d0 cf 71 e1 3d b1 f0 60 be 33 da 9b be 93 74 ba bd
       0.110080354 -0.21966816 -0.3043991 -0.09104266
0003e0 69 1c 98 3e 84 23 d6 3d f9 06 87 3e 98 b1 0f be
       0.29709175 0.10455993 0.26372507 -0.1403259
0003f0 4a fa b3 be c5 50 e0 3c 95 60 80 3e ee 28 67 be
       -0.35151893 0.027382264 0.25073686 -0.22574207

sequential/y_pred/MatMul f4 [3, 20]
000000 e2 3a eb 3e 8b ec 52 bf ba da 11 bf 3a 87 ce 3e
       0.45943362 -0.82392186 -0.56974375 0.40337545
000010 d8 08 ac 3e fe 6e 10 b9 a7 ba 11 3e 32 ad db bd
       0.33600497 -0.00013774258 0.14231358 -0.10726394
000020 d8 df bc be c8 59 7a bd e0 b9 98 bd cf 48 2f 3f
       -0.3688953 -0.06112078 -0.07457328 0.6847047
000030 da 2a 05 3e c6 e3 f5 3e 15 47 43 3f 12 ec 94 be
       0.13004628 0.4802534 0.7628034 -0.29086357
000040 fd 33 20 bf ab 62 6a bd 9c 34 09 bf fc 4e 29 bf
       -0.6257933 -0.057223003 -0.535959 -0.66136146
000050 30 40 99 3e a6 57 31 be 7a 7f eb 3e 97 36 a7 be
       0.29931784 -0.17318591 0.45995694 -0.32658836
000060 d8 ae 16 bd 23 44 2b bc b7 9d 0d bf 13 ba d1 3e
       -0.036787838 -0.010453257 -0.5531878 0.40962276
000070 28 64 af 3e e0 8f 54 3d 09 56 e5 be 37 95 de 3d
       0.342561 0.051895022 -0.44792202 0.10868304
000080 f8 71 e6 3e 6f 98 3f 3e a1 3e 2d bf e8 c4 97 3e
       0.45008826 0.18710493 -0.6767369 0.29642415
000090 2d 5c 1f be da 30 b4 3e bf 08 dd 3b 35 34 c8 3e
       -0.15562506 0.3519352 0.0067454274 0.3910233
0000a0 ea 4d a0 bf 81 0f c4 3e 3c 0a 2e 3d fd 1b 85 3e
       -1.2523777 0.3829308 0.04249023 0.25997916
0000b0 7d 53 be 3e 30 2d d6 3d f7 88 2d 3e c8 6f 2a be
       0.37173072 0.104578376 0.16946779 -0.16644204
0000c0 e1 bb bf 3d 80 a6 70 be 22 7a 80 3d 86 cf 2a bf
       0.09362007 -0.23501015 0.06273295 -0.66722906
0000d0 6f da c1 be 31 d6 e4 be 32 cd 72 be a7 99 d6 be
       -0.37861964 -0.44694665 -0.23711088 -0.41914102
0000e0 ef 63 26 bf 32 2b 4d 3f 74 25 22 3f 4d 8d e9 bd
       -0.64996237 0.80144036 0.633384 -0.11403904
